…
I0421 23:13:35.006425 32711 net.cpp:313] The NetState phase (0) differed from the phase (1) specified by a rule in layer mnist
I0421 23:13:35.006439 32711 net.cpp:313] The NetState phase (0) differed from the phase (1) specified by a rule in layer accuracy
I0421 23:13:35.006530 32711 net.cpp:49] Initializing net from parameters: 
name: "LeNet"
state {
  phase: TRAIN
}
layer {
  name: "mnist"
  type: "Data"
  top: "data"
  top: "label"
  include {
    phase: TRAIN
  }
  transform_param {
    scale: 0.00390625
  }
  data_param {
    source: "/home/yang/workspace/grad/zhang505-yisupeng-final/data/train"
    batch_size: 64
    backend: LMDB
  }
}
layer {
  name: "conv1"
  type: "Convolution"
  bottom: "data"
  top: "conv1"
  param {
    lr_mult: 1
  }
  param {
    lr_mult: 2
  }
  convolution_param {
    num_output: 20
    kernel_size: 5
    stride: 1
    weight_filler {
      type: "xavier"
    }
    bias_filler {
      type: "constant"
    }
  }
}
layer {
  name: "pool1"
  type: "Pooling"
  bottom: "conv1"
  top: "pool1"
  pooling_param {
    pool: MAX
    kernel_size: 2
    stride: 2
  }
}
layer {
  name: "conv2"
  type: "Convolution"
  bottom: "pool1"
  top: "conv2"
  param {
    lr_mult: 1
  }
  param {
    lr_mult: 2
  }
  convolution_param {
    num_output: 50
    kernel_size: 5
    stride: 1
    weight_filler {
      type: "xavier"
    }
    bias_filler {
      type: "constant"
    }
  }
}
layer {
  name: "pool2"
  type: "Pooling"
  bottom: "conv2"
  top: "pool2"
  pooling_param {
    pool: MAX
    kernel_size: 2
    stride: 2
  }
}
layer {
  name: "ip1"
  type: "InnerProduct"
  bottom: "pool2"
  top: "ip1"
  param {
    lr_mult: 1
  }
  param {
    lr_mult: 2
  }
  inner_product_param {
    num_output: 500
    weight_filler {
      type: "xavier"
    }
    bias_filler {
      type: "constant"
    }
  }
}
layer {
  name: "relu1"
  type: "ReLU"
  bottom: "ip1"
  top: "ip1"
}
layer {
  name: "ip2"
  type: "InnerProduct"
  bottom: "ip1"
  top: "ip2"
  param {
    lr_mult: 1
  }
  param {
    lr_mult: 2
  }
  inner_product_param {
    num_output: 101
    weight_filler {
      type: "xavier"
    }
    bias_filler {
      type: "constant"
    }
  }
}
layer {
  name: "loss"
  type: "SoftmaxWithLoss"
  bottom: "ip2"
  bottom: "label"
  top: "loss"
}
I0421 23:13:35.006620 32711 layer_factory.hpp:77] Creating layer mnist
I0421 23:13:35.007053 32711 net.cpp:91] Creating Layer mnist
I0421 23:13:35.007083 32711 net.cpp:399] mnist -> data
I0421 23:13:35.007158 32711 net.cpp:399] mnist -> label
I0421 23:13:35.007905 32721 db_lmdb.cpp:38] Opened lmdb /home/yang/workspace/grad/zhang505-yisupeng-final/data/train
I0421 23:13:35.014251 32711 data_layer.cpp:41] output data size: 64,1,28,28
I0421 23:13:35.015017 32711 net.cpp:141] Setting up mnist
I0421 23:13:35.015055 32711 net.cpp:148] Top shape: 64 1 28 28 (50176)
I0421 23:13:35.015079 32711 net.cpp:148] Top shape: 64 (64)
I0421 23:13:35.015082 32711 net.cpp:156] Memory required for data: 200960
I0421 23:13:35.015135 32711 layer_factory.hpp:77] Creating layer conv1
I0421 23:13:35.015154 32711 net.cpp:91] Creating Layer conv1
I0421 23:13:35.015161 32711 net.cpp:425] conv1 <- data
I0421 23:13:35.015174 32711 net.cpp:399] conv1 -> conv1
I0421 23:13:35.141183 32711 net.cpp:141] Setting up conv1
I0421 23:13:35.141232 32711 net.cpp:148] Top shape: 64 20 24 24 (737280)
I0421 23:13:35.141263 32711 net.cpp:156] Memory required for data: 3150080
I0421 23:13:35.141302 32711 layer_factory.hpp:77] Creating layer pool1
I0421 23:13:35.141314 32711 net.cpp:91] Creating Layer pool1
I0421 23:13:35.141330 32711 net.cpp:425] pool1 <- conv1
I0421 23:13:35.141350 32711 net.cpp:399] pool1 -> pool1
I0421 23:13:35.141401 32711 net.cpp:141] Setting up pool1
I0421 23:13:35.141408 32711 net.cpp:148] Top shape: 64 20 12 12 (184320)
I0421 23:13:35.141412 32711 net.cpp:156] Memory required for data: 3887360
I0421 23:13:35.141417 32711 layer_factory.hpp:77] Creating layer conv2
I0421 23:13:35.141425 32711 net.cpp:91] Creating Layer conv2
I0421 23:13:35.141429 32711 net.cpp:425] conv2 <- pool1
I0421 23:13:35.141434 32711 net.cpp:399] conv2 -> conv2
I0421 23:13:35.142267 32711 net.cpp:141] Setting up conv2
I0421 23:13:35.142279 32711 net.cpp:148] Top shape: 64 50 8 8 (204800)
I0421 23:13:35.142283 32711 net.cpp:156] Memory required for data: 4706560
I0421 23:13:35.142309 32711 layer_factory.hpp:77] Creating layer pool2
I0421 23:13:35.142316 32711 net.cpp:91] Creating Layer pool2
I0421 23:13:35.142320 32711 net.cpp:425] pool2 <- conv2
I0421 23:13:35.142325 32711 net.cpp:399] pool2 -> pool2
I0421 23:13:35.142369 32711 net.cpp:141] Setting up pool2
I0421 23:13:35.142375 32711 net.cpp:148] Top shape: 64 50 4 4 (51200)
I0421 23:13:35.142379 32711 net.cpp:156] Memory required for data: 4911360
I0421 23:13:35.142382 32711 layer_factory.hpp:77] Creating layer ip1
I0421 23:13:35.142423 32711 net.cpp:91] Creating Layer ip1
I0421 23:13:35.142426 32711 net.cpp:425] ip1 <- pool2
I0421 23:13:35.142432 32711 net.cpp:399] ip1 -> ip1
I0421 23:13:35.145037 32711 net.cpp:141] Setting up ip1
I0421 23:13:35.145048 32711 net.cpp:148] Top shape: 64 500 (32000)
I0421 23:13:35.145052 32711 net.cpp:156] Memory required for data: 5039360
I0421 23:13:35.145077 32711 layer_factory.hpp:77] Creating layer relu1
I0421 23:13:35.145083 32711 net.cpp:91] Creating Layer relu1
I0421 23:13:35.145087 32711 net.cpp:425] relu1 <- ip1
I0421 23:13:35.145092 32711 net.cpp:386] relu1 -> ip1 (in-place)
I0421 23:13:35.145318 32711 net.cpp:141] Setting up relu1
I0421 23:13:35.145328 32711 net.cpp:148] Top shape: 64 500 (32000)
I0421 23:13:35.145331 32711 net.cpp:156] Memory required for data: 5167360
I0421 23:13:35.145335 32711 layer_factory.hpp:77] Creating layer ip2
I0421 23:13:35.145359 32711 net.cpp:91] Creating Layer ip2
I0421 23:13:35.145364 32711 net.cpp:425] ip2 <- ip1
I0421 23:13:35.145369 32711 net.cpp:399] ip2 -> ip2
I0421 23:13:35.145741 32711 net.cpp:141] Setting up ip2
I0421 23:13:35.145748 32711 net.cpp:148] Top shape: 64 101 (6464)
I0421 23:13:35.145751 32711 net.cpp:156] Memory required for data: 5193216
I0421 23:13:35.145774 32711 layer_factory.hpp:77] Creating layer loss
I0421 23:13:35.145781 32711 net.cpp:91] Creating Layer loss
I0421 23:13:35.145784 32711 net.cpp:425] loss <- ip2
I0421 23:13:35.145789 32711 net.cpp:425] loss <- label
I0421 23:13:35.145794 32711 net.cpp:399] loss -> loss
I0421 23:13:35.145807 32711 layer_factory.hpp:77] Creating layer loss
…
I0421 23:13:35.146741 32711 solver.cpp:181] Creating test net (#0) specified by net file: /home/yang/workspace/grad/zhang505-yisupeng-final/lenet/yang_train_test.prototxt
I0421 23:13:35.146780 32711 net.cpp:313] The NetState phase (1) differed from the phase (0) specified by a rule in layer mnist
I0421 23:13:35.146858 32711 net.cpp:49] Initializing net from parameters: 
name: "LeNet"
state {
  phase: TEST
}
layer {
  name: "mnist"
  type: "Data"
  top: "data"
  top: "label"
  include {
    phase: TEST
  }
  transform_param {
    scale: 0.00390625
  }
  data_param {
    source: "/home/yang/workspace/grad/zhang505-yisupeng-final/data/test"
    batch_size: 1000
    backend: LMDB
  }
}
layer {
  name: "conv1"
  type: "Convolution"
  bottom: "data"
  top: "conv1"
  param {
    lr_mult: 1
  }
  param {
    lr_mult: 2
  }
  convolution_param {
    num_output: 20
    kernel_size: 5
    stride: 1
    weight_filler {
      type: "xavier"
    }
    bias_filler {
      type: "constant"
    }
  }
}
layer {
  name: "pool1"
  type: "Pooling"
  bottom: "conv1"
  top: "pool1"
  pooling_param {
    pool: MAX
    kernel_size: 2
    stride: 2
  }
}
layer {
  name: "conv2"
  type: "Convolution"
  bottom: "pool1"
  top: "conv2"
  param {
    lr_mult: 1
  }
  param {
    lr_mult: 2
  }
  convolution_param {
    num_output: 50
    kernel_size: 5
    stride: 1
    weight_filler {
      type: "xavier"
    }
    bias_filler {
      type: "constant"
    }
  }
}
layer {
  name: "pool2"
  type: "Pooling"
  bottom: "conv2"
  top: "pool2"
  pooling_param {
    pool: MAX
    kernel_size: 2
    stride: 2
  }
}
layer {
  name: "ip1"
  type: "InnerProduct"
  bottom: "pool2"
  top: "ip1"
  param {
    lr_mult: 1
  }
  param {
    lr_mult: 2
  }
  inner_product_param {
    num_output: 500
    weight_filler {
      type: "xavier"
    }
    bias_filler {
      type: "constant"
    }
  }
}
layer {
  name: "relu1"
  type: "ReLU"
  bottom: "ip1"
  top: "ip1"
}
layer {
  name: "ip2"
  type: "InnerProduct"
  bottom: "ip1"
  top: "ip2"
  param {
    lr_mult: 1
  }
  param {
    lr_mult: 2
  }
  inner_product_param {
    num_output: 101
    weight_filler {
      type: "xavier"
    }
    bias_filler {
      type: "constant"
    }
  }
}
layer {
  name: "accuracy"
  type: "Accuracy"
  bottom: "ip2"
  bottom: "label"
  top: "accuracy"
  include {
    phase: TEST
  }
}
layer {
  name: "loss"
  type: "SoftmaxWithLoss"
  bottom: "ip2"
  bottom: "label"
  top: "loss"
}
I0421 23:13:35.146937 32711 layer_factory.hpp:77] Creating layer mnist
I0421 23:13:35.147388 32711 net.cpp:91] Creating Layer mnist
I0421 23:13:35.147397 32711 net.cpp:399] mnist -> data
I0421 23:13:35.147423 32711 net.cpp:399] mnist -> label
I0421 23:13:35.148205 32723 db_lmdb.cpp:38] Opened lmdb /home/yang/workspace/grad/zhang505-yisupeng-final/data/test
I0421 23:13:35.148387 32711 data_layer.cpp:41] output data size: 1000,1,28,28
I0421 23:13:35.152263 32711 net.cpp:141] Setting up mnist
I0421 23:13:35.152308 32711 net.cpp:148] Top shape: 1000 1 28 28 (784000)
I0421 23:13:35.152331 32711 net.cpp:148] Top shape: 1000 (1000)
I0421 23:13:35.152335 32711 net.cpp:156] Memory required for data: 3140000
I0421 23:13:35.152354 32711 layer_factory.hpp:77] Creating layer label_mnist_1_split
I0421 23:13:35.152386 32711 net.cpp:91] Creating Layer label_mnist_1_split
I0421 23:13:35.152392 32711 net.cpp:425] label_mnist_1_split <- label
I0421 23:13:35.152398 32711 net.cpp:399] label_mnist_1_split -> label_mnist_1_split_0
I0421 23:13:35.152407 32711 net.cpp:399] label_mnist_1_split -> label_mnist_1_split_1
I0421 23:13:35.152511 32711 net.cpp:141] Setting up label_mnist_1_split
I0421 23:13:35.152528 32711 net.cpp:148] Top shape: 1000 (1000)
I0421 23:13:35.152550 32711 net.cpp:148] Top shape: 1000 (1000)
I0421 23:13:35.152554 32711 net.cpp:156] Memory required for data: 3148000
I0421 23:13:35.152557 32711 layer_factory.hpp:77] Creating layer conv1
I0421 23:13:35.152570 32711 net.cpp:91] Creating Layer conv1
I0421 23:13:35.152573 32711 net.cpp:425] conv1 <- data
I0421 23:13:35.152585 32711 net.cpp:399] conv1 -> conv1
I0421 23:13:35.154070 32711 net.cpp:141] Setting up conv1
I0421 23:13:35.154088 32711 net.cpp:148] Top shape: 1000 20 24 24 (11520000)
I0421 23:13:35.154093 32711 net.cpp:156] Memory required for data: 49228000
I0421 23:13:35.154136 32711 layer_factory.hpp:77] Creating layer pool1
I0421 23:13:35.154144 32711 net.cpp:91] Creating Layer pool1
I0421 23:13:35.154165 32711 net.cpp:425] pool1 <- conv1
I0421 23:13:35.154172 32711 net.cpp:399] pool1 -> pool1
I0421 23:13:35.154256 32711 net.cpp:141] Setting up pool1
I0421 23:13:35.154263 32711 net.cpp:148] Top shape: 1000 20 12 12 (2880000)
I0421 23:13:35.154266 32711 net.cpp:156] Memory required for data: 60748000
I0421 23:13:35.154269 32711 layer_factory.hpp:77] Creating layer conv2
I0421 23:13:35.154314 32711 net.cpp:91] Creating Layer conv2
I0421 23:13:35.154320 32711 net.cpp:425] conv2 <- pool1
I0421 23:13:35.154343 32711 net.cpp:399] conv2 -> conv2
I0421 23:13:35.155468 32711 net.cpp:141] Setting up conv2
I0421 23:13:35.155480 32711 net.cpp:148] Top shape: 1000 50 8 8 (3200000)
I0421 23:13:35.155484 32711 net.cpp:156] Memory required for data: 73548000
I0421 23:13:35.155511 32711 layer_factory.hpp:77] Creating layer pool2
I0421 23:13:35.155531 32711 net.cpp:91] Creating Layer pool2
I0421 23:13:35.155535 32711 net.cpp:425] pool2 <- conv2
I0421 23:13:35.155541 32711 net.cpp:399] pool2 -> pool2
I0421 23:13:35.155593 32711 net.cpp:141] Setting up pool2
I0421 23:13:35.155614 32711 net.cpp:148] Top shape: 1000 50 4 4 (800000)
I0421 23:13:35.155637 32711 net.cpp:156] Memory required for data: 76748000
I0421 23:13:35.155642 32711 layer_factory.hpp:77] Creating layer ip1
I0421 23:13:35.155663 32711 net.cpp:91] Creating Layer ip1
I0421 23:13:35.155665 32711 net.cpp:425] ip1 <- pool2
I0421 23:13:35.155673 32711 net.cpp:399] ip1 -> ip1
I0421 23:13:35.158897 32711 net.cpp:141] Setting up ip1
I0421 23:13:35.158926 32711 net.cpp:148] Top shape: 1000 500 (500000)
I0421 23:13:35.158928 32711 net.cpp:156] Memory required for data: 78748000
I0421 23:13:35.158956 32711 layer_factory.hpp:77] Creating layer relu1
I0421 23:13:35.158962 32711 net.cpp:91] Creating Layer relu1
I0421 23:13:35.158980 32711 net.cpp:425] relu1 <- ip1
I0421 23:13:35.158987 32711 net.cpp:386] relu1 -> ip1 (in-place)
I0421 23:13:35.159255 32711 net.cpp:141] Setting up relu1
I0421 23:13:35.159265 32711 net.cpp:148] Top shape: 1000 500 (500000)
I0421 23:13:35.159270 32711 net.cpp:156] Memory required for data: 80748000
I0421 23:13:35.159291 32711 layer_factory.hpp:77] Creating layer ip2
I0421 23:13:35.159299 32711 net.cpp:91] Creating Layer ip2
I0421 23:13:35.159303 32711 net.cpp:425] ip2 <- ip1
I0421 23:13:35.159310 32711 net.cpp:399] ip2 -> ip2
I0421 23:13:35.160190 32711 net.cpp:141] Setting up ip2
I0421 23:13:35.160202 32711 net.cpp:148] Top shape: 1000 101 (101000)
I0421 23:13:35.160204 32711 net.cpp:156] Memory required for data: 81152000
I0421 23:13:35.160228 32711 layer_factory.hpp:77] Creating layer ip2_ip2_0_split
I0421 23:13:35.160235 32711 net.cpp:91] Creating Layer ip2_ip2_0_split
I0421 23:13:35.160239 32711 net.cpp:425] ip2_ip2_0_split <- ip2
I0421 23:13:35.160245 32711 net.cpp:399] ip2_ip2_0_split -> ip2_ip2_0_split_0
I0421 23:13:35.160251 32711 net.cpp:399] ip2_ip2_0_split -> ip2_ip2_0_split_1
I0421 23:13:35.160300 32711 net.cpp:141] Setting up ip2_ip2_0_split
I0421 23:13:35.160305 32711 net.cpp:148] Top shape: 1000 101 (101000)
I0421 23:13:35.160326 32711 net.cpp:148] Top shape: 1000 101 (101000)
I0421 23:13:35.160329 32711 net.cpp:156] Memory required for data: 81960000
I0421 23:13:35.160332 32711 layer_factory.hpp:77] Creating layer accuracy
I0421 23:13:35.160358 32711 net.cpp:91] Creating Layer accuracy
I0421 23:13:35.160362 32711 net.cpp:425] accuracy <- ip2_ip2_0_split_0
I0421 23:13:35.160367 32711 net.cpp:425] accuracy <- label_mnist_1_split_0
I0421 23:13:35.160372 32711 net.cpp:399] accuracy -> accuracy
…
I0421 23:35:22.802623  2698 net.cpp:313] The NetState phase (0) differed from the phase (1) specified by a rule in layer mnist
I0421 23:35:22.802639  2698 net.cpp:313] The NetState phase (0) differed from the phase (1) specified by a rule in layer accuracy
I0421 23:35:22.802789  2698 net.cpp:49] Initializing net from parameters: 
name: "LeNet"
state {
  phase: TRAIN
}
layer {
  name: "mnist"
  type: "Data"
  top: "data"
  top: "label"
  include {
    phase: TRAIN
  }
  transform_param {
    scale: 0.00390625
  }
  data_param {
    source: "/home/yang/workspace/grad/zhang505-yisupeng-final/data/train"
    batch_size: 256
    backend: LMDB
  }
}
layer {
  name: "conv1"
  type: "Convolution"
  bottom: "data"
  top: "conv1"
  param {
    lr_mult: 1
  }
  param {
    lr_mult: 2
  }
  convolution_param {
    num_output: 20
    kernel_size: 5
    stride: 1
    weight_filler {
      type: "xavier"
    }
    bias_filler {
      type: "constant"
    }
  }
}
layer {
  name: "pool1"
  type: "Pooling"
  bottom: "conv1"
  top: "pool1"
  pooling_param {
    pool: MAX
    kernel_size: 2
    stride: 2
  }
}
layer {
  name: "conv2"
  type: "Convolution"
  bottom: "pool1"
  top: "conv2"
  param {
    lr_mult: 1
  }
  param {
    lr_mult: 2
  }
  convolution_param {
    num_output: 50
    kernel_size: 5
    stride: 1
    weight_filler {
      type: "xavier"
    }
    bias_filler {
      type: "constant"
    }
  }
}
layer {
  name: "pool2"
  type: "Pooling"
  bottom: "conv2"
  top: "pool2"
  pooling_param {
    pool: MAX
    kernel_size: 2
    stride: 2
  }
}
layer {
  name: "ip1"
  type: "InnerProduct"
  bottom: "pool2"
  top: "ip1"
  param {
    lr_mult: 1
  }
  param {
    lr_mult: 2
  }
  inner_product_param {
    num_output: 500
    weight_filler {
      type: "xavier"
    }
    bias_filler {
      type: "constant"
    }
  }
}
layer {
  name: "relu1"
  type: "ReLU"
  bottom: "ip1"
  top: "ip1"
}
layer {
  name: "ip2"
  type: "InnerProduct"
  bottom: "ip1"
  top: "ip2"
  param {
    lr_mult: 1
  }
  param {
    lr_mult: 2
  }
  inner_product_param {
    num_output: 101
    weight_filler {
      type: "xavier"
    }
    bias_filler {
      type: "constant"
    }
  }
}
layer {
  name: "loss"
  type: "SoftmaxWithLoss"
  bottom: "ip2"
  bottom: "label"
  top: "loss"
}
I0421 23:35:22.802924  2698 layer_factory.hpp:77] Creating layer mnist
I0421 23:35:22.803478  2698 net.cpp:91] Creating Layer mnist
I0421 23:35:22.803508  2698 net.cpp:399] mnist -> data
I0421 23:35:22.803593  2698 net.cpp:399] mnist -> label
I0421 23:35:22.804378  2716 db_lmdb.cpp:38] Opened lmdb /home/yang/workspace/grad/zhang505-yisupeng-final/data/train
I0421 23:35:22.810983  2698 data_layer.cpp:41] output data size: 256,1,28,28
I0421 23:35:22.812839  2698 net.cpp:141] Setting up mnist
I0421 23:35:22.812921  2698 net.cpp:148] Top shape: 256 1 28 28 (200704)
I0421 23:35:22.812944  2698 net.cpp:148] Top shape: 256 (256)
I0421 23:35:22.812948  2698 net.cpp:156] Memory required for data: 803840
I0421 23:35:22.812974  2698 layer_factory.hpp:77] Creating layer conv1
I0421 23:35:22.812996  2698 net.cpp:91] Creating Layer conv1
I0421 23:35:22.813004  2698 net.cpp:425] conv1 <- data
I0421 23:35:22.813019  2698 net.cpp:399] conv1 -> conv1
I0421 23:35:22.943382  2698 net.cpp:141] Setting up conv1
I0421 23:35:22.943433  2698 net.cpp:148] Top shape: 256 20 24 24 (2949120)
I0421 23:35:22.943437  2698 net.cpp:156] Memory required for data: 12600320
I0421 23:35:22.943526  2698 layer_factory.hpp:77] Creating layer pool1
I0421 23:35:22.943542  2698 net.cpp:91] Creating Layer pool1
I0421 23:35:22.943547  2698 net.cpp:425] pool1 <- conv1
I0421 23:35:22.943554  2698 net.cpp:399] pool1 -> pool1
I0421 23:35:22.943622  2698 net.cpp:141] Setting up pool1
I0421 23:35:22.943631  2698 net.cpp:148] Top shape: 256 20 12 12 (737280)
I0421 23:35:22.943635  2698 net.cpp:156] Memory required for data: 15549440
I0421 23:35:22.943653  2698 layer_factory.hpp:77] Creating layer conv2
I0421 23:35:22.943681  2698 net.cpp:91] Creating Layer conv2
I0421 23:35:22.943686  2698 net.cpp:425] conv2 <- pool1
I0421 23:35:22.943711  2698 net.cpp:399] conv2 -> conv2
I0421 23:35:22.944859  2698 net.cpp:141] Setting up conv2
I0421 23:35:22.944872  2698 net.cpp:148] Top shape: 256 50 8 8 (819200)
I0421 23:35:22.944895  2698 net.cpp:156] Memory required for data: 18826240
I0421 23:35:22.944903  2698 layer_factory.hpp:77] Creating layer pool2
I0421 23:35:22.944928  2698 net.cpp:91] Creating Layer pool2
I0421 23:35:22.944947  2698 net.cpp:425] pool2 <- conv2
I0421 23:35:22.944952  2698 net.cpp:399] pool2 -> pool2
I0421 23:35:22.945032  2698 net.cpp:141] Setting up pool2
I0421 23:35:22.945039  2698 net.cpp:148] Top shape: 256 50 4 4 (204800)
I0421 23:35:22.945056  2698 net.cpp:156] Memory required for data: 19645440
I0421 23:35:22.945060  2698 layer_factory.hpp:77] Creating layer ip1
I0421 23:35:22.945091  2698 net.cpp:91] Creating Layer ip1
I0421 23:35:22.945096  2698 net.cpp:425] ip1 <- pool2
I0421 23:35:22.945116  2698 net.cpp:399] ip1 -> ip1
I0421 23:35:22.947820  2698 net.cpp:141] Setting up ip1
I0421 23:35:22.947837  2698 net.cpp:148] Top shape: 256 500 (128000)
I0421 23:35:22.947860  2698 net.cpp:156] Memory required for data: 20157440
I0421 23:35:22.947867  2698 layer_factory.hpp:77] Creating layer relu1
I0421 23:35:22.947896  2698 net.cpp:91] Creating Layer relu1
I0421 23:35:22.947916  2698 net.cpp:425] relu1 <- ip1
I0421 23:35:22.947922  2698 net.cpp:386] relu1 -> ip1 (in-place)
I0421 23:35:22.948191  2698 net.cpp:141] Setting up relu1
I0421 23:35:22.948202  2698 net.cpp:148] Top shape: 256 500 (128000)
I0421 23:35:22.948206  2698 net.cpp:156] Memory required for data: 20669440
I0421 23:35:22.948228  2698 layer_factory.hpp:77] Creating layer ip2
I0421 23:35:22.948258  2698 net.cpp:91] Creating Layer ip2
I0421 23:35:22.948262  2698 net.cpp:425] ip2 <- ip1
I0421 23:35:22.948282  2698 net.cpp:399] ip2 -> ip2
I0421 23:35:22.948668  2698 net.cpp:141] Setting up ip2
I0421 23:35:22.948675  2698 net.cpp:148] Top shape: 256 101 (25856)
I0421 23:35:22.948680  2698 net.cpp:156] Memory required for data: 20772864
I0421 23:35:22.948705  2698 layer_factory.hpp:77] Creating layer loss
I0421 23:35:22.948730  2698 net.cpp:91] Creating Layer loss
I0421 23:35:22.948734  2698 net.cpp:425] loss <- ip2
I0421 23:35:22.948740  2698 net.cpp:425] loss <- label
I0421 23:35:22.948746  2698 net.cpp:399] loss -> loss
I0421 23:35:22.948776  2698 layer_factory.hpp:77] Creating layer loss
…
